…
Loaded Dynamic2DFlood test with 4 samples (location:ukea_8m_5min, locations:1, events:4)
Loading pretrained weights from: ../../exp/20251021_032243_684871/weights/model_epoch_972_error@0.000022585\model_epoch_972_error@0.000022585_state_dict.pt
Pretrained weights loaded successfully.
self.factor:10
self.factor:10

 MODEL 
 TFNO2d(
  (positional_embedding): GridEmbeddingND()
  (fno_blocks): FNOBlocks(
    (convs): ModuleList(
      (0-3): 4 x SpectralConv(
        (weight): DenseTensor(shape=torch.Size([64, 64, 100, 71]), rank=None)
      )
    )
    (fno_skips): ModuleList(
      (0-3): 4 x Flattened1dConv(
        (conv): Conv1d(64, 64, kernel_size=(1,), stride=(1,), bias=False)
      )
    )
    (channel_mlp): ModuleList(
      (0-3): 4 x ChannelMLP(
        (fcs): ModuleList(
          (0): Conv1d(64, 32, kernel_size=(1,), stride=(1,))
          (1): Conv1d(32, 64, kernel_size=(1,), stride=(1,))
        )
      )
    )
    (channel_mlp_skips): ModuleList(
      (0-3): 4 x SoftGating()
    )
    (norm): ModuleList(
      (0-7): 8 x GroupNorm(1, 64, eps=1e-05, affine=True)
    )
  )
  (lifting): ChannelMLP(
    (fcs): ModuleList(
      (0): Conv1d(15, 128, kernel_size=(1,), stride=(1,))
      (1): Conv1d(128, 64, kernel_size=(1,), stride=(1,))
    )
  )
  (projection): ChannelMLP(
    (fcs): ModuleList(
      (0): Conv1d(64, 128, kernel_size=(1,), stride=(1,))
      (1): Conv1d(128, 1, kernel_size=(1,), stride=(1,))
    )
  )
  (convgru): CGRU_cell(
    (conv1): Sequential(
      (0): Conv2d(128, 128, kernel_size=(1, 1), stride=(1, 1))
      (1): GroupNorm(4, 128, eps=1e-05, affine=True)
    )
    (conv2): Sequential(
      (0): Conv2d(128, 64, kernel_size=(1, 1), stride=(1, 1))
      (1): GroupNorm(2, 64, eps=1e-05, affine=True)
    )
    (conv1_module_wrapper): ModuleWrapperIgnores2ndArg(
      (module): Sequential(
        (0): Conv2d(128, 128, kernel_size=(1, 1), stride=(1, 1))
        (1): GroupNorm(4, 128, eps=1e-05, affine=True)
      )
    )
    (conv2_module_wrapper): ModuleWrapperIgnores2ndArg(
      (module): Sequential(
        (0): Conv2d(128, 64, kernel_size=(1, 1), stride=(1, 1))
        (1): GroupNorm(2, 64, eps=1e-05, affine=True)
      )
    )
  )
)

 OPTIMIZER 
 Adam (
Parameter Group 0
    amsgrad: False
    betas: (0.9, 0.999)
    capturable: False
    decoupled_weight_decay: False
    differentiable: False
    eps: 1e-08
    foreach: None
    fused: None
    initial_lr: 0.01
    lr: 0.0
    maximize: False
    weight_decay: 0
…
